…
ttps://localhost:8080/"},"id":"anE20FR53aTB","executionInfo":{"status":"ok","timestamp":1701120087198,"user_tz":360,"elapsed":171,"user":{"displayName":"Clay Roberts","userId":"15262378552571056378"}},"outputId":"535bdd9d-0a58-484b-ffb1-d38f94b516ac"},"execution_count":null,"outputs":[{"output_type":"stream","name":"stdout","text":["Model: \"sequential\"\n","_________________________________________________________________\n"," Layer (type)                Output Shape              Param #   \n","=================================================================\n"," conv2d (Conv2D)             (None, 28, 28, 32)        832       \n","                                                                 \n"," conv2d_1 (Conv2D)           (None, 28, 28, 32)        25632     \n","                                                                 \n"," max_pooling2d (MaxPooling2  (None, 14, 14, 32)        0         \n"," D)                                                              \n","                                                                 \n"," dropout (Dropout)           (None, 14, 14, 32)        0         \n","                                                                 \n"," conv2d_2 (Conv2D)           (None, 14, 14, 64)        18496     \n","                                                                 \n"," conv2d_3 (Conv2D)           (None, 14, 14, 64)        36928     \n","                                                                 \n"," max_pooling2d_1 (MaxPoolin  (None, 7, 7, 64)          0         \n"," g2D)                                                            \n","                                                                 \n"," dropout_1 (Dropout)         (None, 7, 7, 64)          0         \n","                                                                 \n"," flatten (Flatten)           (None, 3136)              0         \n","                                                                 \n"," dense (Dense)               (None, 128)               401536    \n","                                                                 \n"," dropout_2 (Dropout)         (None, 128)               0         \n","                                                                 \n"," dense_1 (Dense)             (None, 10)                1290      \n","                                                                 \n","=================================================================\n","Total params: 484714 (1.85 MB)\n","Trainable params: 484714 (1.85 MB)\n","Non-trainable params: 0 (0.00 Byte)\n","_________________________________________________________________\n"]}]},{"cell_type":"code","source":["class myCallback(tf.keras.callb
…
